…
  FLIP_TEST: False
  FOREGROUND_FOLDER: foreground
  GPUS: (0,)
  INSTANCE_FOLDER: instance
  INSTANCE_SCORE_TYPE: semantic
  MODEL_FILE: /home/kwanghun/Kwanghun/Tasks/DeepLearning/panoptic-deeplab/models/panoptic_deeplab_X65_os32_cityscapes_lr_x10.pth
  ORACLE_CENTER: False
  ORACLE_FOREGROUND: False
  ORACLE_OFFSET: False
  ORACLE_SEMANTIC: False
  PANOPTIC_FOLDER: panoptic
  SCALE_LIST: [1]
  SEMANTIC_FOLDER: semantic
  TEST_TIME_AUGMENTATION: False
TRAIN:
  IMS_PER_BATCH: 8
  MAX_ITER: 90000
  RESUME: False
WORKERS: 1
[10/05 18:56:44] demo INFO: Model:
PanopticDeepLab(
  (backbone): Xception65(
    (conv1): Conv2d(3, 32, kernel_size=(3, 3), stride=(2, 2), padding=(1, 1), bias=False)
    (bn1): BatchNorm2d(32, eps=1e-05, momentum=0.001, affine=True, track_running_stats=True)
    (relu): ReLU()
    (conv2): Conv2d(32, 64, kernel_size=(3, 3), stride=(1, 1), padding=(1, 1), bias=False)
    (bn2): BatchNorm2d(64, eps=1e-05, momentum=0.001, affine=True, track_running_stats=True)
    (block1): XceptionBlock(
      (conv): Conv2d(64, 128, kernel_size=(1, 1), stride=(2, 2), bias=False)
      (bn): BatchNorm2d(128, eps=1e-05, momentum=0.001, affine=True, track_running_stats=True)
      (sep_conv1): SeparableConv2d(
        (block): Sequential(
          (relu): ReLU()
          (depthwise): Conv2d(64, 64, kernel_size=(3, 3), stride=(1, 1), padding=(1, 1), groups=64, bias=False)
          (bn_depth): BatchNorm2d(64, eps=1e-05, momentum=0.001, affine=True, track_running_stats=True)
          (pointwise): Conv2d(64, 128, kernel_size=(1, 1), stride=(1, 1), bias=False)
          (bn_point): BatchNorm2d(128, eps=1e-05, momentum=0.001, affine=True, track_running_stats=True)
        )
      )
      (sep_conv2): SeparableConv2d(
        (block): Sequential(
          (relu): ReLU()
          (depthwise): Conv2d(128, 128, kernel_size=(3, 3), stride=(1, 1), padding=(1, 1), groups=128, bias=False)
          (bn_depth): BatchNorm2d(128, eps=1e-05, momentum=0.001, affine=True, track_running_stats=True)
          (pointwise): Conv2d(128, 128, kernel_size=(1, 1), stride=(1, 1), bias=False)
          (bn_point): BatchNorm2d(128, eps=1e-05, momentum=0.001, affine=True, track_running_stats=True)
        )
      )
      (sep_conv3): SeparableConv2d(
        (block): Sequential(
          (relu): ReLU()
          (depthwise): Conv2d(128, 128, kernel_size=(3, 3), stride=(2, 2), padding=(1, 1), groups=128, bias=False)
          (bn_depth): BatchNorm2d(128, eps=1e-05, momentum=0.001, affine=True, track_running_stats=True)
          (pointwise): Conv2d(128, 128, kernel_size=(1, 1), stride=(1, 1), bias=False)
          (bn_point): BatchNorm2d(128, eps=1e-05, momentum=0.001, affine=True, track_running_stats=True)
        )
      )
    )
    (block2): XceptionBlock(
      (conv): Conv2d(128, 256, kernel_size=(1, 1), stride=(2, 2), bias=False)
      (bn): BatchNorm2d(256, eps=1e-05, momentum=0.001, affine=True, track_running_stats=True)
      (sep_conv1): SeparableConv2d(
        (block): Sequential(
          (relu): ReLU()
          (depthwise): Conv2d(128, 128, kernel_size=(3, 3), stride=(1, 1), padding=(1, 1), groups=128, bias=False)
          (bn_depth): BatchNorm2d(128, eps=1e-05, momentum=0.001, affine=True, track_running_stats=True)
          (pointwise): Conv2d(128, 256, kernel_size=(1, 1), stride=(1, 1), bias=False)
          (bn_point): BatchNorm2d(256, eps=1e-05, momentum=0.001, affine=True, track_running_stats=True)
        )
      )
      (sep_conv2): SeparableConv2d(
        (block): Sequential(
          (relu): ReLU()
          (depthwise): Conv2d(256, 256, kernel_size=(3, 3), stride=(1, 1), padding=(1, 1), groups=256, bias=False)
          (bn_depth): BatchNorm2d(256, eps=1e-05, momentum=0.001, affine=True, track_running_stats=True)
          (pointwise): Conv2d(256, 256, kernel_size=(1, 1), stride=(1, 1), bias=False)
          (bn_point): BatchNorm2d(256, eps=1e-05, momentum=0.001, affine=True, track_running_stats=True)
        )
      )
      (sep_conv3): SeparableConv2d(
        (block): Sequential(
          (relu): ReLU()
          (depthwise): Conv2d(256, 256, kernel_size=(3, 3), stride=(2, 2), padding=(1, 1), groups=256, bias=False)
          (bn_depth): BatchNorm2d(256, eps=1e-05, momentum=0.001, affine=True, track_running_stats=True)
          (pointwise): Conv2d(256, 256, kernel_size=(1, 1), stride=(1, 1), bias=False)
          (bn_point): BatchNorm2d(256, eps=1e-05, momentum=0.001, affine=True, track_running_stats=True)
        )
      )
    )
    (block3): XceptionBlock(
      (conv): Conv2d(256, 728, kernel_size=(1, 1), stride=(2, 2), bias=False)
      (bn): BatchNorm2d(728, eps=1e-05, momentum=0.001, affine=True, track_running_stats=True)
      (sep_conv1): SeparableConv2d(
        (block): Sequential(
          (relu): ReLU()
          (depthwise): Conv2d(256, 256, kernel_size=(3, 3), stride=(1, 1), padding=(1, 1), groups=256, bias=False)
          (bn_depth): BatchNorm2d(256, eps=1e-05, momentum=0.001, affine=True, track_running_stats=True)
          (pointwise): Conv2d(256, 728, kernel_size=(1, 1), stride=(1, 1), bias=False)
          (bn_point): BatchNorm2d(728, eps=1e-05, momentum=0.001, affine=True, track_running_stats=True)
        )
      )
      (sep_conv2): SeparableConv2d(
        (block): Sequential(
          (relu): ReLU()
          (depthwise): Conv2d(728, 728, kernel_size=(3, 3), stride=(1, 1), padding=(1, 1), groups=728, bias=False)
          (bn_depth): BatchNorm2d(728, eps=1e-05, momentum=0.001, affine=True, track_running_stats=True)
          (pointwise): Conv2d(728, 728, kernel_size=(1, 1), stride=(1, 1), bias=False)
          (bn_point): BatchNorm2d(728, eps=1e-05, momentum=0.001, affine=True, track_running_stats=True)
        )
      )
      (sep_conv3): SeparableConv2d(
        (block): Sequential(
          (relu): ReLU()
          (depthwise): Conv2d(728, 728, kernel_size=(3, 3), stride=(2, 2), padding=(1, 1), groups=728, bias=False)
          (bn_depth): BatchNorm2d(728, eps=1e-05, momentum=0.001, affine=True, track_running_stats=True)
          (pointwise): Conv2d(728, 728, kernel_size=(1, 1), stride=(1, 1), bias=False)
          (bn_point): BatchNorm2d(728, eps=1e-05, momentum=0.001, affine=True, track_running_stats=True)
        )
      )
    )
    (block4): XceptionBlock(
      (sep_conv1): SeparableConv2d(
        (block): Sequential(
          (relu): ReLU()
          (depthwise): Conv2d(728, 728, kernel_size=(3, 3), stride=(1, 1), padding=(1, 1), groups=728, bias=False)
          (bn_depth): BatchNorm2d(728, eps=1e-05, momentum=0.001, affine=True, track_running_stats=True)
          (pointwise): Conv2d(728, 728, kernel_size=(1, 1), stride=(1, 1), bias=False)
          (bn_point): BatchNorm2d(728, eps=1e-05, momentum=0.001, affine=True, track_running_stats=True)
        )
      )
      (sep_conv2): SeparableConv2d(
        (block): Sequential(
          (relu): ReLU()
          (depthwise): Conv2d(728, 728, kernel_size=(3, 3), stride=(1, 1), padding=(1, 1), groups=728, bias=False)
          (bn_depth): BatchNorm2d(728, eps=1e-05, momentum=0.001, affine=True, track_running_stats=True)
          (pointwise): Conv2d(728, 728, kernel_size=(1, 1), stride=(1, 1), bias=False)
          (bn_point): BatchNorm2d(728, eps=1e-05, momentum=0.001, affine=True, track_running_stats=True)
        )
      )
      (sep_conv3): SeparableConv2d(
        (block): Sequential(
          (relu): ReLU()
          (depthwise): Conv2d(728, 728, kernel_size=(3, 3), stride=(1, 1), padding=(1, 1), groups=728, bias=False)
          (bn_depth): BatchNorm2d(728, eps=1e-05, momentum=0.001, affine=True, track_running_stats=True)
          (pointwise): Conv2d(728, 728, kernel_size=(1, 1), stride=(1, 1), bias=False)
          (bn_point): BatchNorm2d(728, eps=1e-05, momentum=0.001, affine=True, track_running_stats=True)
        )
      )
    )
    (block5): XceptionBlock(
      (sep_conv1): SeparableConv2d(
        (block): Sequential(
          (relu): ReLU()
          (depthwise): Conv2d(728, 728, kernel_size=(3, 3), stride=(1, 1), padding=(1, 1), groups=728, bias=False)
          (bn_depth): BatchNorm2d(728, eps=1e-05, momentum=0.001, affine=True, track_running_stats=True)
          (pointwise): Conv2d(728, 728, kernel_size=(1, 1), stride=(1, 1), bias=False)
          (bn_point): BatchNorm2d(728, eps=1e-05, momentum=0.001, affine=True, track_running_stats=True)
        )
      )
      (sep_conv2): SeparableConv2d(
        (block): Sequential(
          (relu): ReLU()
          (depthwise): Conv2d(728, 728, kernel_size=(3, 3), stride=(1, 1), padding=(1, 1), groups=728, bias=False)
          (bn_depth): BatchNorm2d(728, eps=1e-05, momentum=0.001, affine=True, track_running_stats=True)
          (pointwise): Conv2d(728, 728, kernel_size=(1, 1), stride=(1, 1), bias=False)
          (bn_point): BatchNorm2d(728, eps=1e-05, momentum=0.001, affine=True, track_running_stats=True)
        )
      )
      (sep_conv3): SeparableConv2d(
        (block): Sequential(
          (relu): ReLU()
          (depthwise): Conv2d(728, 728, kernel_size=(3, 3), stride=(1, 1), padding=(1, 1), groups=728, bias=False)
          (bn_depth): BatchNorm2d(728, eps=1e-05, momentum=0.001, affine=True, track_running_stats=True)
          (pointwise): Conv2d(728, 728, kernel_size=(1, 1), stride=(1, 1), bias=False)
          (bn_point): BatchNorm2d(728, eps=1e-05, momentum=0.001, affine=True, track_running_stats=True)
        )
      )
    )
    (block6): XceptionBlock(
      (sep_conv1): SeparableConv2d(
        (block): Sequential(
          (relu): ReLU()
          (depthwise): Conv2d(728, 728, kernel_size=(3, 3), stride=(1, 1), padding=(1, 1), groups=728, bias=False)
          (bn_depth): BatchNorm2d(728, eps=1e-05, momentum=0.001, affine=True, track_running_stats=True)
          (pointwise): Conv2d(728, 728, kernel_size=(1, 1), stride=(1, 1), bias=False)
          (bn_point): BatchNorm2d(728, eps=1e-05, momentum=0.001, affine=True, track_running_stats=True)
        )
      )
      (sep_conv2): SeparableConv2d(
        (block): Sequential(
          (relu): ReLU()
          (depthwise): Conv2d(728, 728, kernel_size=(3, 3), stride=(1, 1), padding=(1, 1), groups=728, bias=False)
          (bn_depth): BatchNorm2d(728, eps=1e-05, momentum=0.001, affine=True, track_running_stats=True)
          (pointwise): Conv2d(728, 728, kernel_size=(1, 1), stride=(1, 1), bias=False)
          (bn_point): BatchNorm2d(728, eps=1e-05, momentum=0.001, affine=True, track_running_stats=True)
        )
      )
      (sep_conv3): SeparableConv2d(
        (block): Sequential(
          (relu): ReLU()
          (depthwise): Conv2d(728, 728, kernel_size=(3, 3), stride=(1, 1), padding=(1, 1), groups=728, bias=False)
          (bn_depth): BatchNorm2d(728, eps=1e-05, momentum=0.001, affine=True, track_running_stats=True)
          (pointwise): Conv2d(728, 728, kernel_size=(1, 1), stride=(1, 1), bias=False)
          (bn_point): BatchNorm2d(728, eps=1e-05, momentum=0.001, affine=True, track_running_stats=True)
        )
      )
    )
    (block7): XceptionBlock(
      (sep_conv1): SeparableConv2d(
        (block): Sequential(
          (relu): ReLU()
          (depthwise): Conv2d(728, 728, kernel_size=(3, 3), stride=(1, 1), padding=(1, 1), groups=728, bias=False)
          (bn_depth): BatchNorm2d(728, eps=1e-05, momentum=0.001, affine=True, track_running_stats=True)
          (pointwise): Conv2d(728, 728, kernel_size=(1, 1), stride=(1, 1), bias=False)
          (bn_point): BatchNorm2d(728, eps=1e-05, momentum=0.001, affine=True, track_running_stats=True)
        )
      )
      (sep_conv2): SeparableConv2d(
        (block): Sequential(
          (relu): ReLU()
          (depthwise): Conv2d(728, 728, kernel_size=(3, 3), stride=(1, 1), padding=(1, 1), groups=728, bias=False)
          (bn_depth): BatchNorm2d(728, eps=1e-05, momentum=0.001, affine=True, track_running_stats=True)
          (pointwise): Conv2d(728, 728, kernel_size=(1, 1), stride=(1, 1), bias=False)
          (bn_point): BatchNorm2d(728, eps=1e-05, momentum=0.001, affine=True, track_running_stats=True)
        )
      )
      (sep_conv3): SeparableConv2d(
        (block): Sequential(
          (relu): ReLU()
          (depthwise): Conv2d(728, 728, kernel_size=(3, 3), stride=(1, 1), padding=(1, 1), groups=728, bias=False)
          (bn_depth): BatchNorm2d(728, eps=1e-05, momentum=0.001, affine=True, track_running_stats=True)
          (pointwise): Conv2d(728, 728, kernel_size=(1, 1), stride=(1, 1), bias=False)
          (bn_point): BatchNorm2d(728, eps=1e-05, momentum=0.001, affine=True, track_running_stats=True)
        )
      )
    )
    (block8): XceptionBlock(
      (sep_conv1): SeparableConv2d(
        (block): Sequential(
          (relu): ReLU()
          (depthwise): Conv2d(728, 728, kernel_size=(3, 3), stride=(1, 1), padding=(1, 1), groups=728, bias=False)
          (bn_depth): BatchNorm2d(728, eps=1e-05, momentum=0.001, affine=True, track_running_stats=True)
          (pointwise): Conv2d(728, 728, kernel_size=(1, 1), stride=(1, 1), bias=False)
          (bn_point): BatchNorm2d(728, eps=1e-05, momentum=0.001, affine=True, track_running_stats=True)
        )
      )
      (sep_conv2): SeparableConv2d(
        (block): Sequential(
          (relu): ReLU()
          (depthwise): Conv2d(728, 728, kernel_size=(3, 3), stride=(1, 1), padding=(1, 1), groups=728, bias=False)
          (bn_depth): BatchNorm2d(728, eps=1e-05, momentum=0.001, affine=True, track_running_stats=True)
          (pointwise): Conv2d(728, 728, kernel_size=(1, 1), stride=(1, 1), bias=False)
          (bn_point): BatchNorm2d(728, eps=1e-05, momentum=0.001, affine=True, track_running_stats=True)
        )
      )
      (sep_conv3): SeparableConv2d(
        (block): Sequential(
          (relu): ReLU()
          (depthwise): Conv2d(728, 728, kernel_size=(3, 3), stride=(1, 1), padding=(1, 1), groups=728, bias=False)
          (bn_depth): BatchNorm2d(728, eps=1e-05, momentum=0.001, affine=True, track_running_stats=True)
          (pointwise): Conv2d(728, 728, kernel_size=(1, 1), stride=(1, 1), bias=False)
          (bn_point): BatchNorm2d(728, eps=1e-05, momentum=0.001, affine=True, track_running_stats=True)
        )
      )
    )
    (block9): XceptionBlock(
      (sep_conv1): SeparableConv2d(
        (block): Sequential(
          (relu): ReLU()
          (depthwise): Conv2d(728, 728, kernel_size=(3, 3), stride=(1, 1), padding=(1, 1), groups=728, bias=False)
          (bn_depth): BatchNorm2d(728, eps=1e-05, momentum=0.001, affine=True, track_running_stats=True)
          (pointwise): Conv2d(728, 728, kernel_size=(1, 1), stride=(1, 1), bias=False)
          (bn_point): BatchNorm2d(728, eps=1e-05, momentum=0.001, affine=True, track_running_stats=True)
        )
      )
      (sep_conv2): SeparableConv2d(
        (block): Sequential(
          (relu): ReLU()
          (depthwise): Conv2d(728, 728, kernel_size=(3, 3), stride=(1, 1), padding=(1, 1), groups=728, bias=False)
          (bn_depth): BatchNorm2d(728, eps=1e-05, momentum=0.001, affine=True, track_running_stats=True)
          (pointwise): Conv2d(728, 728, kernel_size=(1, 1), stride=(1, 1), bias=False)
          (bn_point): BatchNorm2d(728, eps=1e-05, momentum=0.001, affine=True, track_running_stats=True)
        )
      )
      (sep_conv3): SeparableConv2d(
        (block): Sequential(
          (relu): ReLU()
          (depthwise): Conv2d(728, 728, kernel_size=(3, 3), stride=(1, 1), padding=(1, 1), groups=728, bias=False)
          (bn_depth): BatchNorm2d(728, eps=1e-05, momentum=0.001, affine=True, track_running_stats=True)
          (pointwise): Conv2d(728, 728, kernel_size=(1, 1), stride=(1, 1), bias=False)
          (bn_point): BatchNorm2d(728, eps=1e-05, momentum=0.001, affine=True, track_running_stats=True)
        )
      )
    )
    (block10): XceptionBlock(
      (sep_conv1): SeparableConv2d(
        (block): Sequential(
          (relu): ReLU()
          (depthwise): Conv2d(728, 728, kernel_size=(3, 3), stride=(1, 1), padding=(1, 1), groups=728, bias=False)
          (bn_depth): BatchNorm2d(728, eps=1e-05, momentum=0.001, affine=True, track_running_stats=True)
          (pointwise): Conv2d(728, 728, kernel_size=(1, 1), stride=(1, 1), bias=False)
          (bn_point): BatchNorm2d(728, eps=1e-05, momentum=0.001, affine=True, track_running_stats=True)
        )
      )
      (sep_conv2): SeparableConv2d(
        (block): Sequential(
          (relu): ReLU()
          (depthwise): Conv2d(728, 728, kernel_size=(3, 3), stride=(1, 1), padding=(1, 1), groups=728, bias=False)
          (bn_depth): BatchNorm2d(728, eps=1e-05, momentum=0.001, affine=True, track_running_stats=True)
          (pointwise): Conv2d(728, 728, kernel_size=(1, 1), stride=(1, 1), bias=False)
          (bn_point): BatchNorm2d(728, eps=1e-05, momentum=0.001, affine=True, track_running_stats=True)
        )
      )
      (sep_conv3): SeparableConv2d(
        (block): Sequential(
          (relu): ReLU()
          (depthwise): Conv2d(728, 728, kernel_size=(3, 3), stride=(1, 1), padding=(1, 1), groups=728, bias=False)
          (bn_depth): BatchNorm2d(728, eps=1e-05, momentum=0.001, affine=True, track_running_stats=True)
          (pointwise): Conv2d(728, 728, kernel_size=(1, 1), stride=(1, 1), bias=False)
          (bn_point): BatchNorm2d(728, eps=1e-05, momentum=0.001, affine=True, track_running_stats=True)
        )
      )
    )
    (block11): XceptionBlock(
      (sep_conv1): SeparableConv2d(
        (block): Sequential(
          (relu): ReLU()
          (depthwise): Conv2d(728, 728, kernel_size=(3, 3), stride=(1, 1), padding=(1, 1), groups=728, bias=False)
          (bn_depth): BatchNorm2d(728, eps=1e-05, momentum=0.001, affine=True, track_running_stats=True)
          (pointwise): Conv2d(728, 728, kernel_size=(1, 1), stride=(1, 1), bias=False)
          (bn_point): BatchNorm2d(728, eps=1e-05, momentum=0.001, affine=True, track_running_stats=True)
        )
      )
      (sep_conv2): SeparableConv2d(
        (block): Sequential(
          (relu): ReLU()
          (depthwise): Conv2d(728, 728, kernel_size=(3, 3), stride=(1, 1), padding=(1, 1), groups=728, bias=False)
          (bn_depth): BatchNorm2d(728, eps=1e-05, momentum=0.001, affine=True, track_running_stats=True)
          (pointwise): Conv2d(728, 728, kernel_size=(1, 1), stride=(1, 1), bias=False)
          (bn_point): BatchNorm2d(728, eps=1e-05, momentum=0.001, affine=True, track_running_stats=True)
        )
      )
      (sep_conv3): SeparableConv2d(
        (block): Sequential(
          (relu): ReLU()
          (depthwise): Conv2d(728, 728, kernel_size=(3, 3), stride=(1, 1), padding=(1, 1), groups=728, bias=False)
          (bn_depth): BatchNorm2d(728, eps=1e-05, momentum=0.001, affine=True, track_running_stats=True)
          (pointwise): Conv2d(728, 728, kernel_size=(1, 1), stride=(1, 1), bias=False)
          (bn_point): BatchNorm2d(728, eps=1e-05, momentum=0.001, affine=True, track_running_stats=True)
        )
      )
    )
    (block12): XceptionBlock(
      (sep_conv1): SeparableConv2d(
        (block): Sequential(
          (relu): ReLU()
          (depthwise): Conv2d(728, 728, kernel_size=(3, 3), stride=(1, 1), padding=(1, 1), groups=728, bias=False)
          (bn_depth): BatchNorm2d(728, eps=1e-05, momentum=0.001, affine=True, track_running_stats=True)
          (pointwise): Conv2d(728, 728, kernel_size=(1, 1), stride=(1, 1), bias=False)
          (bn_point): BatchNorm2d(728, eps=1e-05, momentum=0.001, affine=True, track_running_stats=True)
        )
      )
      (sep_conv2): SeparableConv2d(
        (block): Sequential(
          (relu): ReLU()
          (depthwise): Conv2d(728, 728, kernel_size=(3, 3), stride=(1, 1), padding=(1, 1), groups=728, bias=False)
          (bn_depth): BatchNorm2d(728, eps=1e-05, momentum=0.001, affine=True, track_running_stats=True)
          (pointwise): Conv2d(728, 728, kernel_size=(1, 1), stride=(1, 1), bias=False)
          (bn_point): BatchNorm2d(728, eps=1e-05, momentum=0.001, affine=True, track_running_stats=True)
        )
      )
      (sep_conv3): SeparableConv2d(
        (block): Sequential(
          (relu): ReLU()
          (depthwise): Conv2d(728, 728, kernel_size=(3, 3), stride=(1, 1), padding=(1, 1), groups=728, bias=False)
          (bn_depth): BatchNorm2d(728, eps=1e-05, momentum=0.001, affine=True, track_running_stats=True)
          (pointwise): Conv2d(728, 728, kernel_size=(1, 1), stride=(1, 1), bias=False)
          (bn_point): BatchNorm2d(728, eps=1e-05, momentum=0.001, affine=True, track_running_stats=True)
        )
      )
    )
    (block13): XceptionBlock(
      (sep_conv1): SeparableConv2d(
        (block): Sequential(
          (relu): ReLU()
          (depthwise): Conv2d(728, 728, kernel_size=(3, 3), stride=(1, 1), padding=(1, 1), groups=728, bias=False)
          (bn_depth): BatchNorm2d(728, eps=1e-05, momentum=0.001, affine=True, track_running_stats=True)
          (pointwise): Conv2d(728, 728, kernel_size=(1, 1), stride=(1, 1), bias=False)
          (bn_point): BatchNorm2d(728, eps=1e-05, momentum=0.001, affine=True, track_running_stats=True)
        )
      )
      (sep_conv2): SeparableConv2d(
        (block): Sequential(
          (relu): ReLU()
          (depthwise): Conv2d(728, 728, kernel_size=(3, 3), stride=(1, 1), padding=(1, 1), groups=728, bias=False)
          (bn_depth): BatchNorm2d(728, eps=1e-05, momentum=0.001, affine=True, track_running_stats=True)
          (pointwise): Conv2d(728, 728, kernel_size=(1, 1), stride=(1, 1), bias=False)
          (bn_point): BatchNorm2d(728, eps=1e-05, momentum=0.001, affine=True, track_running_stats=True)
        )
      )
      (sep_conv3): SeparableConv2d(
        (block): Sequential(
          (relu): ReLU()
          (depthwise): Conv2d(728, 728, kernel_size=(3, 3), stride=(1, 1), padding=(1, 1), groups=728, bias=False)
          (bn_depth): BatchNorm2d(728, eps=1e-05, momentum=0.001, affine=True, track_running_stats=True)
          (pointwise): Conv2d(728, 728, kernel_size=(1, 1), stride=(1, 1), bias=False)
          (bn_point): BatchNorm2d(728, eps=1e-05, momentum=0.001, affine=True, track_running_stats=True)
        )
      )
    )
    (block14): XceptionBlock(
      (sep_conv1): SeparableConv2d(
        (block): Sequential(
          (relu): ReLU()
          (depthwise): Conv2d(728, 728, kernel_size=(3, 3), stride=(1, 1), padding=(1, 1), groups=728, bias=False)
          (bn_depth): BatchNorm2d(728, eps=1e-05, momentum=0.001, affine=True, track_running_stats=True)
          (pointwise): Conv2d(728, 728, kernel_size=(1, 1), stride=(1, 1), bias=False)
          (bn_point): BatchNorm2d(728, eps=1e-05, momentum=0.001, affine=True, track_running_stats=True)
        )
      )
      (sep_conv2): SeparableConv2d(
        (block): Sequential(
          (relu): ReLU()
          (depthwise): Conv2d(728, 728, kernel_size=(3, 3), stride=(1, 1), padding=(1, 1), groups=728, bias=False)
          (bn_depth): BatchNorm2d(728, eps=1e-05, momentum=0.001, affine=True, track_running_stats=True)
          (pointwise): Conv2d(728, 728, kernel_size=(1, 1), stride=(1, 1), bias=False)
          (bn_point): BatchNorm2d(728, eps=1e-05, momentum=0.001, affine=True, track_running_stats=True)
        )
      )
      (sep_conv3): SeparableConv2d(
        (block): Sequential(
          (relu): ReLU()
          (depthwise): Conv2d(728, 728, kernel_size=(3, 3), stride=(1, 1), padding=(1, 1), groups=728, bias=False)
          (bn_depth): BatchNorm2d(728, eps=1e-05, momentum=0.001, affine=True, track_running_stats=True)
          (pointwise): Conv2d(728, 728, kernel_size=(1, 1), stride=(1, 1), bias=False)
          (bn_point): BatchNorm2d(728, eps=1e-05, momentum=0.001, affine=True, track_running_stats=True)
        )
      )
    )
    (block15): XceptionBlock(
      (sep_conv1): SeparableConv2d(
        (block): Sequential(
          (relu): ReLU()
          (depthwise): Conv2d(728, 728, kernel_size=(3, 3), stride=(1, 1), padding=(1, 1), groups=728, bias=False)
          (bn_depth): BatchNorm2d(728, eps=1e-05, momentum=0.001, affine=True, track_running_stats=True)
          (pointwise): Conv2d(728, 728, kernel_size=(1, 1), stride=(1, 1), bias=False)
          (bn_point): BatchNorm2d(728, eps=1e-05, momentum=0.001, affine=True, track_running_stats=True)
        )
      )
      (sep_conv2): SeparableConv2d(
        (block): Sequential(
          (relu): ReLU()
          (depthwise): Conv2d(728, 728, kernel_size=(3, 3), stride=(1, 1), padding=(1, 1), groups=728, bias=False)
          (bn_depth): BatchNorm2d(728, eps=1e-05, momentum=0.001, affine=True, track_running_stats=True)
          (pointwise): Conv2d(728, 728, kernel_size=(1, 1), stride=(1, 1), bias=False)
          (bn_point): BatchNorm2d(728, eps=1e-05, momentum=0.001, affine=True, track_running_stats=True)
        )
      )
      (sep_conv3): SeparableConv2d(
        (block): Sequential(
          (relu): ReLU()
          (depthwise): Conv2d(728, 728, kernel_size=(3, 3), stride=(1, 1), padding=(1, 1), groups=728, bias=False)
          (bn_depth): BatchNorm2d(728, eps=1e-05, momentum=0.001, affine=True, track_running_stats=True)
          (pointwise): Conv2d(728, 728, kernel_size=(1, 1), stride=(1, 1), bias=False)
          (bn_point): BatchNorm2d(728, eps=1e-05, momentum=0.001, affine=True, track_running_stats=True)
        )
      )
    )
    (block16): XceptionBlock(
      (sep_conv1): SeparableConv2d(
        (block): Sequential(
          (relu): ReLU()
          (depthwise): Conv2d(728, 728, kernel_size=(3, 3), stride=(1, 1), padding=(1, 1), groups=728, bias=False)
          (bn_depth): BatchNorm2d(728, eps=1e-05, momentum=0.001, affine=True, track_running_stats=True)
          (pointwise): Conv2d(728, 728, kernel_size=(1, 1), stride=(1, 1), bias=False)
          (bn_point): BatchNorm2d(728, eps=1e-05, momentum=0.001, affine=True, track_running_stats=True)
        )
      )
      (sep_conv2): SeparableConv2d(
        (block): Sequential(
          (relu): ReLU()
          (depthwise): Conv2d(728, 728, kernel_size=(3, 3), stride=(1, 1), padding=(1, 1), groups=728, bias=False)
          (bn_depth): BatchNorm2d(728, eps=1e-05, momentum=0.001, affine=True, track_running_stats=True)
          (pointwise): Conv2d(728, 728, kernel_size=(1, 1), stride=(1, 1), bias=False)
          (bn_point): BatchNorm2d(728, eps=1e-05, momentum=0.001, affine=True, track_running_stats=True)
        )
      )
      (sep_conv3): SeparableConv2d(
        (block): Sequential(
          (relu): ReLU()
          (depthwise): Conv2d(728, 728, kernel_size=(3, 3), stride=(1, 1), padding=(1, 1), groups=728, bias=False)
          (bn_depth): BatchNorm2d(728, eps=1e-05, momentum=0.001, affine=True, track_running_stats=True)
          (pointwise): Conv2d(728, 728, kernel_size=(1, 1), stride=(1, 1), bias=False)
          (bn_point): BatchNorm2d(728, eps=1e-05, momentum=0.001, affine=True, track_running_stats=True)
        )
      )
    )
    (block17): XceptionBlock(
      (sep_conv1): SeparableConv2d(
        (block): Sequential(
          (relu): ReLU()
          (depthwise): Conv2d(728, 728, kernel_size=(3, 3), stride=(1, 1), padding=(1, 1), groups=728, bias=False)
          (bn_depth): BatchNorm2d(728, eps=1e-05, momentum=0.001, affine=True, track_running_stats=True)
          (pointwise): Conv2d(728, 728, kernel_size=(1, 1), stride=(1, 1), bias=False)
          (bn_point): BatchNorm2d(728, eps=1e-05, momentum=0.001, affine=True, track_running_stats=True)
        )
      )
      (sep_conv2): SeparableConv2d(
        (block): Sequential(
          (relu): ReLU()
          (depthwise): Conv2d(728, 728, kernel_size=(3, 3), stride=(1, 1), padding=(1, 1), groups=728, bias=False)
          (bn_depth): BatchNorm2d(728, eps=1e-05, momentum=0.001, affine=True, track_running_stats=True)
          (pointwise): Conv2d(728, 728, kernel_size=(1, 1), stride=(1, 1), bias=False)
          (bn_point): BatchNorm2d(728, eps=1e-05, momentum=0.001, affine=True, track_running_stats=True)
        )
      )
      (sep_conv3): SeparableConv2d(
        (block): Sequential(
          (relu): ReLU()
          (depthwise): Conv2d(728, 728, kernel_size=(3, 3), stride=(1, 1), padding=(1, 1), groups=728, bias=False)
          (bn_depth): BatchNorm2d(728, eps=1e-05, momentum=0.001, affine=True, track_running_stats=True)
          (pointwise): Conv2d(728, 728, kernel_size=(1, 1), stride=(1, 1), bias=False)
          (bn_point): BatchNorm2d(728, eps=1e-05, momentum=0.001, affine=True, track_running_stats=True)
        )
      )
    )
    (block18): XceptionBlock(
      (sep_conv1): SeparableConv2d(
        (block): Sequential(
          (relu): ReLU()
          (depthwise): Conv2d(728, 728, kernel_size=(3, 3), stride=(1, 1), padding=(1, 1), groups=728, bias=False)
          (bn_depth): BatchNorm2d(728, eps=1e-05, momentum=0.001, affine=True, track_running_stats=True)
          (pointwise): Conv2d(728, 728, kernel_size=(1, 1), stride=(1, 1), bias=False)
          (bn_point): BatchNorm2d(728, eps=1e-05, momentum=0.001, affine=True, track_running_stats=True)
        )
      )
      (sep_conv2): SeparableConv2d(
        (block): Sequential(
          (relu): ReLU()
          (depthwise): Conv2d(728, 728, kernel_size=(3, 3), stride=(1, 1), padding=(1, 1), groups=728, bias=False)
          (bn_depth): BatchNorm2d(728, eps=1e-05, momentum=0.001, affine=True, track_running_stats=True)
          (pointwise): Conv2d(728, 728, kernel_size=(1, 1), stride=(1, 1), bias=False)
          (bn_point): BatchNorm2d(728, eps=1e-05, momentum=0.001, affine=True, track_running_stats=True)
        )
      )
      (sep_conv3): SeparableConv2d(
        (block): Sequential(
          (relu): ReLU()
          (depthwise): Conv2d(728, 728, kernel_size=(3, 3), stride=(1, 1), padding=(1, 1), groups=728, bias=False)
          (bn_depth): BatchNorm2d(728, eps=1e-05, momentum=0.001, affine=True, track_running_stats=True)
          (pointwise): Conv2d(728, 728, kernel_size=(1, 1), stride=(1, 1), bias=False)
          (bn_point): BatchNorm2d(728, eps=1e-05, momentum=0.001, affine=True, track_running_stats=True)
        )
      )
    )
    (block19): XceptionBlock(
      (sep_conv1): SeparableConv2d(
        (block): Sequential(
          (relu): ReLU()
          (depthwise): Conv2d(728, 728, kernel_size=(3, 3), stride=(1, 1), padding=(1, 1), groups=728, bias=False)
          (bn_depth): BatchNorm2d(728, eps=1e-05, momentum=0.001, affine=True, track_running_stats=True)
          (pointwise): Conv2d(728, 728, kernel_size=(1, 1), stride=(1, 1), bias=False)
          (bn_point): BatchNorm2d(728, eps=1e-05, momentum=0.001, affine=True, track_running_stats=True)
        )
      )
      (sep_conv2): SeparableConv2d(
        (block): Sequential(
          (relu): ReLU()
          (depthwise): Conv2d(728, 728, kernel_size=(3, 3), stride=(1, 1), padding=(1, 1), groups=728, bias=False)
          (bn_depth): BatchNorm2d(728, eps=1e-05, momentum=0.001, affine=True, track_running_stats=True)
          (pointwise): Conv2d(728, 728, kernel_size=(1, 1), stride=(1, 1), bias=False)
          (bn_point): BatchNorm2d(728, eps=1e-05, momentum=0.001, affine=True, track_running_stats=True)
        )
      )
      (sep_conv3): SeparableConv2d(
        (block): Sequential(
          (relu): ReLU()
          (depthwise): Conv2d(728, 728, kernel_size=(3, 3), stride=(1, 1), padding=(1, 1), groups=728, bias=False)
          (bn_depth): BatchNorm2d(728, eps=1e-05, momentum=0.001, affine=True, track_running_stats=True)
          (pointwise): Conv2d(728, 728, kernel_size=(1, 1), stride=(1, 1), bias=False)
          (bn_point): BatchNorm2d(728, eps=1e-05, momentum=0.001, affine=True, track_running_stats=True)
        )
      )
    )
    (block20): XceptionBlock(
      (conv): Conv2d(728, 1024, kernel_size=(1, 1), stride=(2, 2), bias=False)
      (bn): BatchNorm2d(1024, eps=1e-05, momentum=0.001, affine=True, track_running_stats=True)
      (sep_conv1): SeparableConv2d(
        (block): Sequential(
          (relu): ReLU()
          (depthwise): Conv2d(728, 728, kernel_size=(3, 3), stride=(1, 1), padding=(1, 1), groups=728, bias=False)
          (bn_depth): BatchNorm2d(728, eps=1e-05, momentum=0.001, affine=True, track_running_stats=True)
          (pointwise): Conv2d(728, 728, kernel_size=(1, 1), stride=(1, 1), bias=False)
          (bn_point): BatchNorm2d(728, eps=1e-05, momentum=0.001, affine=True, track_running_stats=True)
        )
      )
      (sep_conv2): SeparableConv2d(
        (block): Sequential(
          (relu): ReLU()
          (depthwise): Conv2d(728, 728, kernel_size=(3, 3), stride=(1, 1), padding=(1, 1), groups=728, bias=False)
          (bn_depth): BatchNorm2d(728, eps=1e-05, momentum=0.001, affine=True, track_running_stats=True)
          (pointwise): Conv2d(728, 1024, kernel_size=(1, 1), stride=(1, 1), bias=False)
          (bn_point): BatchNorm2d(1024, eps=1e-05, momentum=0.001, affine=True, track_running_stats=True)
        )
      )
      (sep_conv3): SeparableConv2d(
        (block): Sequential(
          (relu): ReLU()
          (depthwise): Conv2d(1024, 1024, kernel_size=(3, 3), stride=(2, 2), padding=(1, 1), groups=1024, bias=False)
          (bn_depth): BatchNorm2d(1024, eps=1e-05, momentum=0.001, affine=True, track_running_stats=True)
          (pointwise): Conv2d(1024, 1024, kernel_size=(1, 1), stride=(1, 1), bias=False)
          (bn_point): BatchNorm2d(1024, eps=1e-05, momentum=0.001, affine=True, track_running_stats=True)
        )
      )
    )
    (block21): XceptionBlock(
      (sep_conv1): SeparableConv2d(
        (block): Sequential(
          (depthwise): Conv2d(1024, 1024, kernel_size=(3, 3), stride=(1, 1), padding=(1, 1), groups=1024, bias=False)
          (bn_depth): BatchNorm2d(1024, eps=1e-05, momentum=0.001, affine=True, track_running_stats=True)
          (relu1): ReLU(inplace=True)
          (pointwise): Conv2d(1024, 1536, kernel_size=(1, 1), stride=(1, 1), bias=False)
          (bn_point): BatchNorm2d(1536, eps=1e-05, momentum=0.001, affine=True, track_running_stats=True)
          (relu2): ReLU(inplace=True)
        )
      )
      (sep_conv2): SeparableConv2d(
        (block): Sequential(
          (depthwise): Conv2d(1536, 1536, kernel_size=(3, 3), stride=(1, 1), padding=(1, 1), groups=1536, bias=False)
          (bn_depth): BatchNorm2d(1536, eps=1e-05, momentum=0.001, affine=True, track_running_stats=True)
          (relu1): ReLU(inplace=True)
          (pointwise): Conv2d(1536, 1536, kernel_size=(1, 1), stride=(1, 1), bias=False)
          (bn_point): BatchNorm2d(1536, eps=1e-05, momentum=0.001, affine=True, track_running_stats=True)
          (relu2): ReLU(inplace=True)
        )
      )
      (sep_conv3): SeparableConv2d(
        (block): Sequential(
          (depthwise): Conv2d(1536, 1536, kernel_size=(3, 3), stride=(1, 1), padding=(1, 1), groups=1536, bias=False)
          (bn_depth): BatchNorm2d(1536, eps=1e-05, momentum=0.001, affine=True, track_running_stats=True)
          (relu1): ReLU(inplace=True)
          (pointwise): Conv2d(1536, 2048, kernel_size=(1, 1), stride=(1, 1), bias=False)
          (bn_point): BatchNorm2d(2048, eps=1e-05, momentum=0.001, affine=True, track_running_stats=True)
          (relu2): ReLU(inplace=True)
        )
      )
    )
  )
  (decoder): PanopticDeepLabDecoder(
    (semantic_decoder): SinglePanopticDeepLabDecoder(
      (aspp): ASPP(
        (convs): ModuleList(
          (0): Sequential(
            (0): Conv2d(2048, 256, kernel_size=(1, 1), stride=(1, 1), bias=False)
            (1): BatchNorm2d(256, eps=1e-05, momentum=0.001, affine=True, track_running_stats=True)
            (2): ReLU()
          )
          (1): ASPPConv(
            (0): Conv2d(2048, 256, kernel_size=(3, 3), stride=(1, 1), padding=(3, 3), dilation=(3, 3), bias=False)
            (1): BatchNorm2d(256, eps=1e-05, momentum=0.001, affine=True, track_running_stats=True)
            (2): ReLU()
          )
          (2): ASPPConv(
            (0): Conv2d(2048, 256, kernel_size=(3, 3), stride=(1, 1), padding=(6, 6), dilation=(6, 6), bias=False)
            (1): BatchNorm2d(256, eps=1e-05, momentum=0.001, affine=True, track_running_stats=True)
            (2): ReLU()
          )
          (3): ASPPConv(
            (0): Conv2d(2048, 256, kernel_size=(3, 3), stride=(1, 1), padding=(9, 9), dilation=(9, 9), bias=False)
            (1): BatchNorm2d(256, eps=1e-05, momentum=0.001, affine=True, track_running_stats=True)
            (2): ReLU()
          )
          (4): ASPPPooling(
            (aspp_pooling): Sequential(
              (0): AdaptiveAvgPool2d(output_size=1)
              (1): Conv2d(2048, 256, kernel_size=(1, 1), stride=(1, 1), bias=False)
              (2): ReLU()
            )
          )
        )
        (project): Sequential(
          (0): Conv2d(1280, 256, kernel_size=(1, 1), stride=(1, 1), bias=False)
          (1): BatchNorm2d(256, eps=1e-05, momentum=0.001, affine=True, track_running_stats=True)
          (2): ReLU()
          (3): Dropout(p=0.5, inplace=False)
        )
      )
      (project): ModuleList(
        (0): Sequential(
          (0): Conv2d(728, 128, kernel_size=(1, 1), stride=(1, 1), bias=False)
          (1): BatchNorm2d(128, eps=1e-05, momentum=0.001, affine=True, track_running_stats=True)
          (2): ReLU()
        )
        (1): Sequential(
          (0): Conv2d(728, 64, kernel_size=(1, 1), stride=(1, 1), bias=False)
          (1): BatchNorm2d(64, eps=1e-05, momentum=0.001, affine=True, track_running_stats=True)
          (2): ReLU()
        )
        (2): Sequential(
          (0): Conv2d(256, 32, kernel_size=(1, 1), stride=(1, 1), bias=False)
          (1): BatchNorm2d(32, eps=1e-05, momentum=0.001, affine=True, track_running_stats=True)
          (2): ReLU()
        )
      )
      (fuse): ModuleList(
        (0): Sequential(
          (0): Sequential(
            (0): Sequential(
              (0): Conv2d(384, 384, kernel_size=(5, 5), stride=(1, 1), padding=(2, 2), groups=384, bias=False)
              (1): BatchNorm2d(384, eps=1e-05, momentum=0.001, affine=True, track_running_stats=True)
              (2): ReLU()
            )
            (1): Conv2d(384, 256, kernel_size=(1, 1), stride=(1, 1), bias=False)
            (2): BatchNorm2d(256, eps=1e-05, momentum=0.001, affine=True, track_running_stats=True)
            (3): ReLU()
          )
        )
        (1): Sequential(
          (0): Sequential(
            (0): Sequential(
              (0): Conv2d(320, 320, kernel_size=(5, 5), stride=(1, 1), padding=(2, 2), groups=320, bias=False)
              (1): BatchNorm2d(320, eps=1e-05, momentum=0.001, affine=True, track_running_stats=True)
              (2): ReLU()
            )
            (1): Conv2d(320, 256, kernel_size=(1, 1), stride=(1, 1), bias=False)
            (2): BatchNorm2d(256, eps=1e-05, momentum=0.001, affine=True, track_running_stats=True)
            (3): ReLU()
          )
        )
        (2): Sequential(
          (0): Sequential(
            (0): Sequential(
              (0): Conv2d(288, 288, kernel_size=(5, 5), stride=(1, 1), padding=(2, 2), groups=288, bias=False)
              (1): BatchNorm2d(288, eps=1e-05, momentum=0.001, affine=True, track_running_stats=True)
              (2): ReLU()
            )
            (1): Conv2d(288, 256, kernel_size=(1, 1), stride=(1, 1), bias=False)
            (2): BatchNorm2d(256, eps=1e-05, momentum=0.001, affine=True, track_running_stats=True)
            (3): ReLU()
          )
        )
      )
    )
    (semantic_head): SinglePanopticDeepLabHead(
      (classifier): ModuleDict(
        (semantic): Sequential(
          (0): Sequential(
            (0): Sequential(
              (0): Sequential(
                (0): Conv2d(256, 256, kernel_size=(5, 5), stride=(1, 1), padding=(2, 2), groups=256, bias=False)
                (1): BatchNorm2d(256, eps=1e-05, momentum=0.001, affine=True, track_running_stats=True)
                (2): ReLU()
              )
              (1): Conv2d(256, 256, kernel_size=(1, 1), stride=(1, 1), bias=False)
              (2): BatchNorm2d(256, eps=1e-05, momentum=0.001, affine=True, track_running_stats=True)
              (3): ReLU()
            )
          )
          (1): Conv2d(256, 19, kernel_size=(1, 1), stride=(1, 1))
        )
      )
    )
    (instance_decoder): SinglePanopticDeepLabDecoder(
      (aspp): ASPP(
        (convs): ModuleList(
          (0): Sequential(
            (0): Conv2d(2048, 256, kernel_size=(1, 1), stride=(1, 1), bias=False)
            (1): BatchNorm2d(256, eps=1e-05, momentum=0.001, affine=True, track_running_stats=True)
            (2): ReLU()
          )
          (1): ASPPConv(
            (0): Conv2d(2048, 256, kernel_size=(3, 3), stride=(1, 1), padding=(3, 3), dilation=(3, 3), bias=False)
            (1): BatchNorm2d(256, eps=1e-05, momentum=0.001, affine=True, track_running_stats=True)
            (2): ReLU()
          )
          (2): ASPPConv(
            (0): Conv2d(2048, 256, kernel_size=(3, 3), stride=(1, 1), padding=(6, 6), dilation=(6, 6), bias=False)
            (1): BatchNorm2d(256, eps=1e-05, momentum=0.001, affine=True, track_running_stats=True)
            (2): ReLU()
          )
          (3): ASPPConv(
            (0): Conv2d(2048, 256, kernel_size=(3, 3), stride=(1, 1), padding=(9, 9), dilation=(9, 9), bias=False)
            (1): BatchNorm2d(256, eps=1e-05, momentum=0.001, affine=True, track_running_stats=True)
            (2): ReLU()
          )
          (4): ASPPPooling(
            (aspp_pooling): Sequential(
              (0): AdaptiveAvgPool2d(output_size=1)
              (1): Conv2d(2048, 256, kernel_size=(1, 1), stride=(1, 1), bias=False)
              (2): ReLU()
            )
          )
        )
        (project): Sequential(
          (0): Conv2d(1280, 256, kernel_size=(1, 1), stride=(1, 1), bias=False)
          (1): BatchNorm2d(256, eps=1e-05, momentum=0.001, affine=True, track_running_stats=True)
          (2): ReLU()
          (3): Dropout(p=0.5, inplace=False)
        )
      )
      (project): ModuleList(
        (0): Sequential(
          (0): Conv2d(728, 64, kernel_size=(1, 1), stride=(1, 1), bias=False)
          (1): BatchNorm2d(64, eps=1e-05, momentum=0.001, affine=True, track_running_stats=True)
          (2): ReLU()
        )
        (1): Sequential(
          (0): Conv2d(728, 32, kernel_size=(1, 1), stride=(1, 1), bias=False)
          (1): BatchNorm2d(32, eps=1e-05, momentum=0.001, affine=True, track_running_stats=True)
          (2): ReLU()
        )
        (2): Sequential(
          (0): Conv2d(256, 16, kernel_size=(1, 1), stride=(1, 1), bias=False)
          (1): BatchNorm2d(16, eps=1e-05, momentum=0.001, affine=True, track_running_stats=True)
          (2): ReLU()
        )
      )
      (fuse): ModuleList(
        (0): Sequential(
          (0): Sequential(
            (0): Sequential(
              (0): Conv2d(320, 320, kernel_size=(5, 5), stride=(1, 1), padding=(2, 2), groups=320, bias=False)
              (1): BatchNorm2d(320, eps=1e-05, momentum=0.001, affine=True, track_running_stats=True)
              (2): ReLU()
            )
            (1): Conv2d(320, 128, kernel_size=(1, 1), stride=(1, 1), bias=False)
            (2): BatchNorm2d(128, eps=1e-05, momentum=0.001, affine=True, track_running_stats=True)
            (3): ReLU()
          )
        )
        (1): Sequential(
          (0): Sequential(
            (0): Sequential(
              (0): Conv2d(160, 160, kernel_size=(5, 5), stride=(1, 1), padding=(2, 2), groups=160, bias=False)
              (1): BatchNorm2d(160, eps=1e-05, momentum=0.001, affine=True, track_running_stats=True)
              (2): ReLU()
            )
            (1): Conv2d(160, 128, kernel_size=(1, 1), stride=(1, 1), bias=False)
            (2): BatchNorm2d(128, eps=1e-05, momentum=0.001, affine=True, track_running_stats=True)
            (3): ReLU()
          )
        )
        (2): Sequential(
          (0): Sequential(
            (0): Sequential(
              (0): Conv2d(144, 144, kernel_size=(5, 5), stride=(1, 1), padding=(2, 2), groups=144, bias=False)
              (1): BatchNorm2d(144, eps=1e-05, momentum=0.001, affine=True, track_running_stats=True)
              (2): ReLU()
            )
            (1): Conv2d(144, 128, kernel_size=(1, 1), stride=(1, 1), bias=False)
            (2): BatchNorm2d(128, eps=1e-05, momentum=0.001, affine=True, track_running_stats=True)
            (3): ReLU()
          )
        )
      )
    )
    (instance_head): SinglePanopticDeepLabHead(
      (classifier): ModuleDict(
        (center): Sequential(
          (0): Sequential(
            (0): Sequential(
              (0): Sequential(
                (0): Conv2d(128, 128, kernel_size=(5, 5), stride=(1, 1), padding=(2, 2), groups=128, bias=False)
                (1): BatchNorm2d(128, eps=1e-05, momentum=0.001, affine=True, track_running_stats=True)
                (2): ReLU()
              )
              (1): Conv2d(128, 32, kernel_size=(1, 1), stride=(1, 1), bias=False)
              (2): BatchNorm2d(32, eps=1e-05, momentum=0.001, affine=True, track_running_stats=True)
              (3): ReLU()
            )
          )
          (1): Conv2d(32, 1, kernel_size=(1, 1), stride=(1, 1))
        )
        (offset): Sequential(
          (0): Sequential(
            (0): Sequential(
              (0): Sequential(
                (0): Conv2d(128, 128, kernel_size=(5, 5), stride=(1, 1), padding=(2, 2), groups=128, bias=False)
                (1): BatchNorm2d(128, eps=1e-05, momentum=0.001, affine=True, track_running_stats=True)
                (2): ReLU()
              )
              (1): Conv2d(128, 32, kernel_size=(1, 1), stride=(1, 1), bias=False)
              (2): BatchNorm2d(32, eps=1e-05, momentum=0.001, affine=True, track_running_stats=True)
              (3): ReLU()
            )
          )
          (1): Conv2d(32, 2, kernel_size=(1, 1), stride=(1, 1))
        )
      )
    )
  )
  (semantic_loss): DeepLabCE(
    (criterion): CrossEntropyLoss()
  )
  (center_loss): MSELoss()
  (offset_loss): L1Loss()
)
[10/05 18:56:46] demo WARNING: Cannot build data loader, using default meta data. This will disable visualizing intermediate outputs
[10/05 18:56:46] demo INFO: Test model loaded from /home/kwanghun/Kwanghun/Tasks/DeepLearning/panoptic-deeplab/models/panoptic_deeplab_X65_os32_cityscapes_lr_x10.pth
…
